model_parameters.npz (npz, 412594 bytes, 6 tensors)

W1 f4 [25, 4096]
000000 0c 92 41 3c c8 3a 86 3e c4 39 d8 3d ad fa e8 3d
       0.011814605 0.26216722 0.10557893 0.113759376
000010 37 aa e3 bd a7 61 44 be ce be 1e be 6e a6 91 bd
       -0.1111645 -0.19177876 -0.15502474 -0.07111822
000020 fc 26 08 3d 58 74 94 bb b0 88 86 be 40 f2 86 3d
       0.033240303 -0.004530471 -0.2627616 0.06589174
000030 18 81 2c 3d 0c e8 19 3e 76 84 d5 3d 32 5f 8a 3b
       0.0421153 0.15029925 0.104256555 0.004222774
000040 e6 53 ca bd df 45 e7 bd 50 f0 4b be 81 49 c4 bd
       -0.098792836 -0.11292624 -0.1991589 -0.09584332
000050 05 cd 10 bd 3d 20 0b 3e f3 67 2f 3e e5 f4 c6 3c
       -0.03535177 0.13586517 0.17129497 0.024286697
000060 90 06 3e ba c4 34 2f 3c d5 18 8e 3d 03 73 50 bd
       -0.00072489027 0.010693733 0.0693833 -0.050890934
000070 2c 20 67 bc 5b a5 81 bc 31 99 0f bd 29 94 ca bd
       -0.0141067915 -0.015825918 -0.035058204 -0.098915406
000080 59 d5 cd 39 ef e3 43 3d 24 fc b4 3c be 71 2a 3d
       0.00039259603 0.047824796 0.022092886 0.04161238
000090 b3 06 85 3d 20 ca 07 bc ad 7f c4 bd c4 46 85 3c
       0.064954184 -0.008287936 -0.09594665 0.016269095
0000a0 d2 60 31 bc 2f f6 c2 bc 2a 91 fa bc 8d 73 38 bd
       -0.010826306 -0.02379903 -0.030586798 -0.045032073
0000b0 c2 2c a1 3d 6f 65 49 3d 2c 84 99 bc 8b 68 ef bd
       0.07869865 0.049169 -0.018739782 -0.11689862
0000c0 2a 54 d7 3d 4e 54 98 3d 84 82 57 3d 92 95 55 3e
       0.105141 0.07437955 0.052614704 0.20857838
0000d0 a4 69 89 3d 61 60 d4 3d 74 e9 0c 3d 78 c1 53 3d
       0.067096025 0.10369945 0.034402326 0.051698178
0000e0 81 74 20 3d 50 2a a7 3e d1 c3 5b 3e a5 b3 bd 3d
       0.039173607 0.3264947 0.21461417 0.0926278
0000f0 88 0b 9c 39 03 37 87 ba d6 f4 15 3e fc 46 d2 bd
       0.0002976323 -0.0010316077 0.14644179 -0.102674454
000100 27 7a 10 be 9f 88 be 3e 69 92 02 3e 17 86 06 be
       -0.14109097 0.3721361 0.12751164 -0.13137089
000110 f2 b5 d8 bd 07 9b 96 be b4 27 03 bd 6b bb 48 bd
       -0.10581578 -0.2941515 -0.032020286 -0.04900686
000120 f2 f5 3c 3e c6 ec aa bd aa ff d6 bd f9 16 8f 3d
       0.18453196 -0.08345942 -0.10497983 0.069868036
000130 7c 42 c5 bd fa 38 a2 bd f9 76 07 be 8c b5 8d be
       -0.096318215 -0.07921024 -0.13228978 -0.27677572
000140 44 26 30 be 6b 47 8b bd d0 88 a2 3b fb e7 ba bc
       -0.17202097 -0.06800731 0.004960157 -0.022815695
000150 f2 62 75 ba e9 6d bf 3c 0f c9 d6 3d 1d 1b 90 3d
       -0.00093607523 0.023367839 0.10487568 0.070364214
000160 af 21 0d 3d 7a 86 b7 3d 4f 5c 01 3e 84 3c af 3d
       0.03445595 0.08961196 0.12632869 0.08556464
000170 5c 10 2f 3d 1c 82 bb 3c 75 8f 88 3d 35 50 33 3d
       0.04274021 0.02288919 0.06667987 0.043777663
000180 ee 03 74 3c a7 37 ab bc a8 71 94 3c 4d 0b 9d 3c
       0.014893515 -0.02090056 0.018120602 0.019170428
000190 e8 71 3f 3d 04 24 00 3d 9a 19 ae bc 0f 57 57 3d
       0.04673949 0.031284347 -0.021252442 0.05257326
0001a0 34 1b 05 3d 27 7e 9d bc fb 97 19 3e ce a4 1b 3e
       0.032496646 -0.019225193 0.14999382 0.15199587
0001b0 fa a1 02 3e 7d 89 08 3e df f9 25 3e d8 ce 69 3d
       0.12757102 0.13333698 0.162086 0.057082027
0001c0 cc 89 96 bd 6b e0 aa bd 86 60 2b 3d fb 9a c2 ba
       -0.073505014 -0.083435856 0.0418401 -0.0014847213
0001d0 c7 53 f0 bd 6d 97 e8 3d 0d 59 58 bd c8 84 0e be
       -0.11734729 0.11357007 -0.0528193 -0.1391784
0001e0 42 96 92 be 93 4b 61 3d f4 1a fa 3b c1 7a b8 bc
       -0.28630263 0.055003714 0.0076326076 -0.022519471
0001f0 35 3b 27 bd be 4c 0c 3e a7 7e d6 3d dc 8d 2b 3e
       -0.04082795 0.1370115 0.10473376 0.16753334
000200 19 ed 52 bc 2a 05 00 3f e5 e6 87 3e a8 44 d7 bd
       -0.012873911 0.5000788 0.26543346 -0.10511142
000210 0f 6f 91 3e fd 0a 0f 3d 49 8d a4 3d cb 8f 8b bc
       0.28405043 0.03492259 0.080347605 -0.01703634
000220 5d e5 4d 3e 59 c9 a2 3d 05 fa 22 be ae ef 67 be
       0.20107026 0.0794856 -0.15915687 -0.22650024
000230 c9 58 24 bc a7 fb 1d 3e c9 95 82 3e 9b d3 75 3e
       -0.010030934 0.15428029 0.25504902 0.24006502
000240 b9 40 a2 3d c3 58 cf 3d 6f a3 b5 3d e4 d3 c1 3c
       0.07922501 0.10124352 0.08869063 0.023660608
000250 cb df 30 3d 11 a0 f8 bd 48 5b 6a 3d a9 38 1c 3e
       0.043182176 -0.12139905 0.05721596 0.15255989
000260 68 e1 22 3c 67 cd 05 3d 8f 20 c8 3d fe dc b2 3d
       0.009941436 0.03266659 0.09771835 0.08733557
000270 fe 86 d5 3c 68 49 f7 3c 7b 4d 33 bd dd cd ed bc
       0.026065346 0.03018637 -0.043775063 -0.029028827
000280 f5 0e 8d 3d b8 4e a1 3d 70 3b 2d bc cd d9 fb bb
       0.068876185 0.078763425 -0.010573253 -0.007685876
000290 d2 47 90 3a ec 63 f0 bc 04 d0 ca bc 73 ab c3 bc
       0.0011007732 -0.029344521 -0.024757393 -0.023885464
0002a0 f1 89 1b bd 8d e1 8e bd d7 08 ad 3d ba ac ad bc
       -0.037973348 -0.06976614 0.08448952 -0.021200527
0002b0 74 eb fc bd 29 6b c1 bd bc ef 26 bd ea 9b b9 bd
       -0.123495966 -0.09444267 -0.040755972 -0.09062941
0002c0 28 80 04 be fb d0 90 bc 10 bb d4 3d be 4b 19 bd
       -0.12939513 -0.017677775 0.10387242 -0.03742575
0002d0 16 0d 28 be 34 26 63 3d 41 e9 2d 3e 17 42 32 3c
       -0.16411242 0.055456355 0.1698351 0.010880015
0002e0 5f 19 26 3d 35 b7 17 bd 06 19 7e 3d fd b7 85 be
       0.04055154 -0.037039954 0.062035583 -0.26116934
0002f0 8b bc 20 3d 65 34 d6 bd 53 57 94 bd 45 93 1f be
       0.03924231 -0.10459212 -0.07243218 -0.15583523
000300 79 3c 05 3e 59 9b 5c bc c7 4a 8d be 5f 62 bb bd
       0.1301135 -0.013464772 -0.27596113 -0.09149622
000310 23 c0 11 3e 0b 63 67 3d 68 6b 93 bc 16 2b 5b bd
       0.1423345 0.05649094 -0.017995551 -0.053507887
000320 75 06 e7 3c 70 f1 16 3e 8d de 9b 3d 64 87 a7 bb
       0.028201321 0.14740539 0.076108076 -0.0051125754
000330 e1 57 63 3d d8 f2 33 3e 8f 64 87 3d eb 79 d9 3b
       0.05550373 0.17573106 0.06610977 0.006636848
000340 8c 85 f4 bd 9e 6c d1 bc b3 2d 0a be dd 16 2f be
       -0.119395345 -0.025564488 -0.13493995 -0.17098565
000350 07 c2 f4 3c 94 bf 0c 3d fa d8 8b 3c 15 56 0b bd
       0.029877676 0.03436239 0.017071236 -0.03401764
000360 40 a5 82 bc c4 70 e8 3d fb 6a 7b 3d 97 5e 0f 3d
       -0.015947938 0.11349633 0.06138132 0.035002317
000370 1c 51 8a 3d 35 1b 47 3d 24 78 55 3d 7e 17 93 3d
       0.06753752 0.04860993 0.05211653 0.07182215
000380 ad 94 0e 3d b5 3a 9d 3d 6f c5 50 3d 23 da 1e 3c
       0.034809757 0.07677213 0.050969537 0.0096955625
000390 71 8a d0 bc ba 8d 95 bd 64 72 e7 bd ac 26 5b 3d
       -0.025456639 -0.07302423 -0.11301115 0.053503677
0003a0 b8 39 b0 3d 37 51 58 3c 91 4d 30 bd 6e 11 f3 3d
       0.08604759 0.013202957 -0.043042723 0.11868559
0003b0 ba e3 c1 3c 57 06 09 3e 81 04 6f bb 9e e6 02 be
       0.023668159 0.13381325 -0.003647119 -0.12783286
0003c0 82 64 e6 bd 3b 07 28 be ad 5c 29 bd c7 a1 8e 3d
       -0.11249639 -0.16409008 -0.041348148 0.0696445
0003d0 fb c7 a8 bd d7 5c a7 bd f6 9e 1e be 48 d4 7b bc
       -0.08241268 -0.08172005 -0.15490326 -0.015370436
0003e0 bb 72 22 3a b1 01 ef bd 29 fd 02 3e 69 37 2a be
       0.0006196906 -0.116702445 0.12791885 -0.166227
0003f0 12 15 6b 3d 50 6a 01 3e 3c 0b f5 3d 36 fc 0e 3d
       0.05739314 0.12638211 0.119650334 0.034908496

b1 f4 [25, 1]
000000 3d 01 2d bc bf 04 91 3e 0b b5 ab be 9b 40 9c bb
       -0.010559377 0.28323933 -0.33536562 -0.0047684438
000010 57 7d 06 3f 9c b2 9e be fa 31 79 3e 8e d2 b0 3e
       0.52535003 -0.30995643 0.24335471 0.3453564
000020 cb 2c 43 be 4f 22 e4 3e 15 71 76 be 5f 48 8f 3d
       -0.19060056 0.44557425 -0.24066575 0.069962256
000030 37 5f 6c be b3 12 11 3e 1e a0 db 3e da a1 4e 3e
       -0.23083197 0.1416729 0.42895597 0.20178929
000040 3c fd c5 be b7 66 c0 3e 72 27 87 be 58 2b 2d be
       -0.38669765 0.37578365 -0.26397282 -0.16911066
000050 40 5f a2 bd c0 d5 aa be 08 95 0f 3e 4b 8f 84 be
       -0.07928324 -0.33366203 0.14021695 -0.25890574
000060 3f 20 59 3e
       0.21203707

W2 f4 [12, 25]
000000 bf 3b a2 bd f0 df d5 3e 62 a7 81 bc b1 e6 20 bb
       -0.07921552 0.41772413 -0.015826885 -0.0024551565
000010 64 db 68 bc 2d 88 84 be 2c ef 2d 3f 78 17 27 3f
       -0.014212463 -0.25885144 0.6794307 0.65270185
000020 1f b8 23 be f6 7e d8 3e 3b 66 83 3e ac 93 10 3f
       -0.15988205 0.42284364 0.25663933 0.5647533
000030 d1 3f 44 be 94 80 07 3f 58 4a 8d 3f 40 a5 e7 3e
       -0.19164969 0.5293057 1.1038313 0.45243263
000040 05 06 a6 be c0 48 0a bf 5d 0f 63 be 0e 21 3e be
       -0.32426468 -0.5401726 -0.2217383 -0.18567297
000050 1b 4f b0 bf e9 29 8f be 95 50 f0 3d 90 fd bf be
       -1.3774141 -0.27961662 0.1173412 -0.3749814
000060 b2 48 a4 3e 09 23 5e 3e 18 e3 29 be 7e 25 dc bf
       0.32086712 0.21693052 -0.16590536 -1.7198942
000070 ec e5 40 3b cc 11 f2 bd fc 97 0f be 26 4d 5f be
       0.002943392 -0.11819801 -0.14022821 -0.21806774
000080 89 c1 38 3f 02 58 c5 3e d7 1f c2 be b9 9b 8b be
       0.7217031 0.38543707 -0.37914917 -0.27267244
000090 5d 80 95 be 10 8c 28 3e 83 ef d4 be 9b 14 5d bf
       -0.29199496 0.1645968 -0.41588983 -0.86359566
0000a0 fa c0 eb be 5e c4 af 3d 7b fc e7 3e 04 8b 7c bd
       -0.46045667 0.08582376 0.45309815 -0.061656013
0000b0 79 0d 00 3f a3 ff 04 3f 75 e5 36 be 5b 8e 2c be
       0.5002056 0.5195257 -0.17860968 -0.1685118
0000c0 2f f3 cd 3b fa c5 e6 3d cc 7a 04 bf 67 b2 2e 3f
       0.0062850933 0.1126823 -0.51749873 0.6824097
0000d0 28 3a 9c 3e 09 ce 00 3f bc b0 cf 3e e3 da c4 3d
       0.3051312 0.50314385 0.40564525 0.09612062
0000e0 d6 68 96 3d 6a de 78 3f 72 e6 5d be 09 de c0 bc
       0.073442146 0.97214377 -0.21669939 -0.023543375
0000f0 ce 0f bc be e4 48 65 bd d4 03 8c 3e 9b a4 77 3e
       -0.36730808 -0.055977717 0.2734667 0.24183886
000100 7f a2 63 3e e0 7d 33 bf 78 74 b6 3d 3d c2 18 3f
       0.22229956 -0.70113945 0.089089334 0.59671384
000110 50 15 7c bd a5 83 bb be 41 4b 03 bf 55 08 95 be
       -0.061543763 -0.36623874 -0.51286703 -0.2910792
000120 38 02 d5 3d 43 cf 7e be d5 6c f1 bd 17 f2 26 3f
       0.10400814 -0.24883752 -0.11788336 0.6521315
000130 7b dd 09 bf 4b 47 61 3e 8f 8e 7e 3e e2 74 ee 3e
       -0.5385358 0.21999852 0.2485907 0.4657355
000140 6c b4 d8 bd c8 31 f4 be a6 dc cb be 19 18 85 bd
       -0.10581288 -0.4769423 -0.3981678 -0.06498737
000150 6a 05 e6 bd 74 26 bf bd 88 af f2 3d 2f 00 48 be
       -0.112315014 -0.09333506 0.11849886 -0.1953132
000160 61 9f 11 bf e1 ed b7 be 2b cc c7 be 1a d5 ba be
       -0.5688382 -0.35923675 -0.39022955 -0.3649071
000170 fb fd 3f 3e ae c0 ce be f9 d9 92 3d 83 ad fc 3e
       0.1874923 -0.40381378 0.07170481 0.4935113
000180 dc 98 74 bd cc a8 58 be c7 41 af 3e c3 26 b2 bd
       -0.05971609 -0.21158141 0.34229872 -0.086987995
000190 7e 4d 93 bd cb 58 bf 3f 8e 2a bb 3e b1 53 d7 3e
       -0.07192515 1.4948972 0.36555904 0.4205604
0001a0 7f c0 06 3f 04 ad 80 be aa 5c 0b 3f 15 6e 04 3f
       0.52637476 -0.25132 0.5443827 0.5173047
0001b0 9b 6f ab 3c 84 ec 6e be 94 8c 5e 3e 67 c5 8b 3e
       0.020927241 -0.23332411 0.21733314 0.27299044
0001c0 e4 83 9e bc 75 a0 4f 3f 38 5d af be a3 a5 65 bd
       -0.01935 0.81104213 -0.34250808 -0.056066167
0001d0 be 04 33 be a4 e7 e7 be 19 a8 bd be 13 11 d5 3d
       -0.17482278 -0.45293915 -0.3704231 0.10403647
0001e0 c6 2d 6b 3e 52 c6 e9 bd 10 b1 d3 be 5b e3 c2 be
       0.2296668 -0.1141478 -0.41346025 -0.38064083
0001f0 90 38 db be d7 b5 90 be 1e be 14 3f ea 7c cb bd
       -0.4281659 -0.28263733 0.58102596 -0.09935935
000200 55 ce a3 3d a1 9e 8f be 99 71 b4 3d 6e f8 39 bf
       0.07998339 -0.28050712 0.088107295 -0.726447
000210 c0 f6 54 3f 65 4b 89 bd ff 5e 3c 3e 67 8b ec 3e
       0.8318901 -0.067038335 0.18395613 0.46200106
000220 e3 a8 89 3e 47 3f 73 be 9d 66 08 bf f2 50 c5 3e
       0.26886663 -0.23754607 -0.53281575 0.3853832
000230 af 88 16 3f 54 42 9d be 16 1d 94 3e e5 38 d9 3d
       0.5880231 -0.30714667 0.2892844 0.10606555
000240 e1 cb 6c be 57 73 7a bf f8 ef 42 3d 1d c0 c6 3c
       -0.23124649 -0.97832245 0.047592133 0.024261529
000250 16 72 e3 3e 66 f8 a4 be 41 62 49 3f 6e d4 38 3f
       0.44422978 -0.32220763 0.7866555 0.7219914
000260 1a 39 01 3f bb 19 c1 be 83 6c fd be 33 ef 96 3e
       0.50477755 -0.37714943 -0.4949685 0.2947937
000270 ff 46 b3 be 00 c1 53 3f 03 79 58 3e b7 bf 99 bf
       -0.35015103 0.8271637 0.21139912 -1.2011632
000280 80 be 61 bf ad 13 80 bc 98 eb 1d be cd 80 c7 bf
       -0.88181305 -0.015634382 -0.15421903 -1.5586182
000290 8f 4e 5e be e3 88 c1 3e 42 6d 28 bb 91 53 79 3d
       -0.21709655 0.3779975 -0.0025699888 0.06087071
0002a0 75 f9 b4 be d3 8c b5 be 08 4a 83 be ba 84 57 be
       -0.3534657 -0.35459003 -0.2564242 -0.21046725
0002b0 55 33 a5 3d f8 21 f8 be fb 14 c4 be 32 c5 92 be
       0.080664314 -0.48463416 -0.38297257 -0.28666073
0002c0 43 40 f6 bd c2 d7 6b 3e 22 e6 87 bd e3 8a 89 bf
       -0.12023976 0.23031524 -0.06635691 -1.074551
0002d0 22 28 94 be 43 86 56 be 7a 70 19 bf 44 1c 87 3d
       -0.2893687 -0.20949654 -0.5993725 0.06597188
0002e0 ef 54 1f 3e ad e6 96 be 2a 11 5b 3d 5c 69 f2 be
       0.15559743 -0.29472867 0.053483166 -0.47346008
0002f0 86 51 cf 3d 60 68 7f bd 5e cd a6 3e c1 52 b2 3b
       0.10122971 -0.0623554 0.32578558 0.005441994
000300 0a d2 5f bf dd ac 73 bd 76 9f 88 bd 69 1b a7 3c
       -0.8742987 -0.059491027 -0.0667104 0.020398812
000310 98 75 41 3d 4c 72 14 3e 07 4d 8b bc f0 84 f0 3e
       0.047231287 0.14496726 -0.017004503 0.46976423
000320 30 7c 27 3c 12 de 37 3f d3 57 18 be f0 d7 41 bc
       0.01022248 0.7182323 -0.14877252 -0.011831269
000330 db f6 20 3e fe ab 96 3d 24 37 1e 3f 3e 49 06 be
       0.15719168 0.07357024 0.6180289 -0.13113877
000340 f4 e2 48 3e f0 1f 7e 3f ba 37 30 bf f8 37 eb bf
       0.19617826 0.9926748 -0.6883503 -1.8376455
000350 8f 60 23 be 92 56 23 3f 20 40 2c bf f8 ee e5 be
       -0.15954803 0.6380397 -0.67285347 -0.4490888
000360 a4 8c b3 3e be 2a 2b 3f 35 e2 0b 3d 9f 95 65 3e
       0.35068238 0.66862094 0.034151275 0.22420357
000370 4c a9 57 3f 13 d1 28 be 6c 6f a3 bd d9 2b a2 be
       0.842427 -0.16486005 -0.079802364 -0.31674078
000380 d6 09 b7 be 57 18 2d be ca 2e a9 3f b3 38 3d be
       -0.35749692 -0.16903816 1.3217404 -0.1847866
000390 90 db a9 3e a3 c9 76 bd 74 b1 d4 be 32 18 7e 3f
       0.33175325 -0.06025089 -0.41541636 0.9925567
0003a0 bd b8 ff 3e 14 6a ee bd 79 58 6f be 84 d5 6f 3e
       0.49945632 -0.116413265 -0.23373593 0.23421293
0003b0 df c9 ba bc 0e 40 31 3c a4 44 23 3f 4b 5c 16 bf
       -0.022801338 0.0108184945 0.6377661 -0.5873458
0003c0 d0 65 ea bd 38 41 63 be 65 8a 8b bf 3c 94 92 3e
       -0.114452004 -0.22192848 -1.090161 0.2862872
0003d0 a2 f0 e3 3e f1 d4 69 3f a8 8c 08 3e d7 58 10 be
       0.44519526 0.9134055 0.13334906 -0.1409639
0003e0 37 cd 98 3e 90 0a 0a bf 90 51 f9 3e 82 c3 69 3f
       0.29844067 -0.5392237 0.4869504 0.91313946
0003f0 1b 1e c4 3d 54 b5 84 be c7 66 d9 be 09 cf 0b bd
       0.09576055 -0.25919592 -0.42461225 -0.03413299

b2 f4 [12, 1]
000000 57 e2 b4 be 99 2d 0f 3f 61 4c 2c 3f d5 fc 24 3e
       -0.35328934 0.5592895 0.67304045 0.16112073
000010 4d c0 d2 bd d7 25 3d bf 3d 18 a5 3e 4d 0b 55 3f
       -0.10290585 -0.73885864 0.32245055 0.8322037
000020 02 f8 10 be b7 83 0e 3f 06 ca 8e 3e c3 a1 18 3f
       -0.14157107 0.5566973 0.27888507 0.5962183

W3 f4 [4, 12]
000000 6c 67 36 bf 27 4d 9b 3f 7c d2 26 bf 18 41 08 3e
       -0.7125156 1.213292 -0.65164924 0.13306081
000010 1f 93 a8 3e fa 93 c1 bf c4 de 02 40 b3 5b 16 40
       0.32924744 -1.5123284 2.0448465 2.3493469
000020 a9 2d c5 bf 19 d4 66 3f 7f c0 0b 3f 1a 3a 02 40
       -1.5404559 0.90167385 0.545906 2.0347962
000030 28 3c a0 be 1d bb df 3e 43 d6 93 3f 80 07 5b 3f
       -0.31295896 0.43697444 1.1549762 0.8555832
000040 a7 c3 86 bf 6c 5d 10 3f 4e ab df bf cf ec 43 c0
       -1.0528458 0.5639255 -1.7474153 -3.0613286
000050 d3 8c 1a c0 a7 61 8d bf e0 cb 86 3f b7 37 8c bf
       -2.4148452 -1.1045426 1.0530968 -1.0954503
000060 32 02 04 3f 61 dc 37 c0 eb 67 b9 3f 2c 90 83 bf
       0.5156585 -2.8728259 1.4484838 -1.0278373
000070 49 9f a5 3e 74 3f a7 3e 05 cd 69 bf 94 0f d6 3d
       0.32348087 0.32665598 -0.9132846 0.1045219
000080 1e a1 b3 3f 6d 30 62 3f dd a4 ea bf cd 3f df be
       1.4033544 0.8835514 -1.8331562 -0.43603364
000090 75 44 81 bf 01 3a 86 3f b4 a6 1d c0 72 c8 f8 bb
       -1.0099016 1.0486451 -2.4632998 -0.0075922543
0000a0 55 32 a8 bf 4d dc a6 be ec 53 d1 bf 5b 84 81 c0
       -1.314036 -0.3258995 -1.6353736 -4.0474067
0000b0 3b 86 4c 3f e8 5f 93 3e f0 8b d9 bd 5a 04 ba bf
       0.7989232 0.28784108 -0.10622394 -1.4532578

b3 f4 [4, 1]
000000 6b 95 3b bf 0e cd 52 3f 32 57 8c 3d cf 3a 07 3f
       -0.7327487 0.8234414 0.06852569 0.5282411
